model.pt (torch, 21824 bytes, 4 tensors)

weight f4 [20, 100]
-0.036687605 -0.008416076 0.004479415 0.04536803 -0.044920053 0.049072646 0.07362574 -0.06948369
-0.082999825 -0.020731455 -0.020164685 0.07697836 0.079513215 -0.03546097 0.08189917 -0.0868053
-0.0098553 0.016515465 -0.038340166 -0.016738346 0.018966109 -0.062541045 -0.054437783 0.04113844
0.05837861 -0.017937887 -0.08840531 -0.07239511 0.039191395 -0.07497567 -0.07109638 0.016497578
-0.038675874 0.0101265265 0.09044508 -0.08641773 0.04095319 0.08432024 0.033235744 -0.08236829
-0.083192304 -0.09187646 0.08172747 -0.026533198 0.027032183 0.08218168 0.072709285 0.06550417
0.0022693158 -0.09112835 0.025077539 0.03306702 -0.06653499 0.07990545 -0.08315907 -0.08114053
-0.06359764 0.0026314443 -0.031579755 -0.048598398 -0.0008211029 0.08977359 0.07570131 0.09078752
0.013317764 0.05529408 0.05643609 -0.033584308 0.036633976 -0.04544289 0.07843416 -0.042101216
-0.09758202 0.051694132 -0.09411784 -0.037151843 0.040751025 -0.010108587 0.014539493 0.012862442
0.012692545 0.028286817 0.06280271 0.067488156 -0.04357336 0.061832324 0.038438834 -0.035841998
-0.04988407 -0.02019829 0.02853342 -0.06664564 0.0009187502 -0.0540738 -0.041874047 -0.008483172
0.014321132 0.06908471 0.09010517 0.03089641 0.44423655 0.0343923 -0.27626634 0.52765393
-0.16857152 0.051144216 0.5613702 -1.6720017 -0.42031217 1.4847016 2.3282697 0.6474068
-0.0078039444 -0.28277722 0.094564006 -0.2082135 0.3637706 0.14031538 0.11607021 -0.1370361
0.51464933 -1.57603 0.08479608 0.044554107 0.006774233 -1.1408771 -1.247779 0.9268253
0.45412913 -0.12895443 0.6036055 1.006666 0.054879934 -0.6211228 0.38609818 0.09898855
-0.6186565 0.6375093 -1.3203527 0.060411777 -1.1389102 -1.6943166 0.6525706 0.5100051
-0.5506943 1.3363384 0.0705404 -0.016399914 -1.6651927 0.06218342 0.12522706 1.0995722
0.80259293 0.33409774 0.5183764 -0.6809402 0.9012163 0.07076379 0.8435338 0.067388594
0.2749524 0.005345132 -0.015995318 0.42409784 -1.0481578 0.88842213 1.7012186 0.41364115
1.111242 0.091368034 0.1473678 1.6137637 -0.01755298 0.55930704 -0.8904543 -0.048313577
0.022107529 -0.6466137 -1.5913494 0.055576045 -1.2543544 0.5820659 0.08243249 -0.0821424
-1.2280996 -0.8429255 -1.5801691 -1.05125 -0.17671299 1.0158652 -0.068364605 -0.93512106
0.016568411 -0.15396763 0.07091942 0.52858686 -1.1954674 0.7925183 -0.21747062 0.7946303
-0.55380887 -0.036909945 0.6498516 1.1718676 -0.26454836 -0.011299693 1.1921618 -0.3390678
0.25390318 -0.39483327 0.78460795 -1.5976218 0.083553 0.6100653 -0.5287753 -0.5162035
-0.57382935 0.06062181 0.076124474 2.3180776 1.2668111 -0.6584635 -0.010218022 -0.037411157
-0.02418128 0.5334614 -1.2424217 -1.3514757 -0.4579014 -0.25749144 -0.4200336 0.121015385
-0.040525798 -0.16374643 -0.5347893 2.4981544 -1.3057536 1.825235 -0.2164739 -0.05756471
1.1077652 1.1890992 -0.96138394 1.2284373 -1.6813767 -0.6177557 0.0031232263 -0.06614066
-0.3980056 0.05114406 0.08515554 -0.90393573 0.79666054 -0.50984395 -0.08950396 -0.9236661
00000000: be45 16bd 95e3 09bc 0ec8 923b d4d3 393d
00000010: 17fe 37bd 6600 493d 18c9 963d 774d 8ebd
00000020: d0fb a9bd 03d5 a9bc 6930 a5bc d5a6 9d3d
00000030: d3d7 a23d 863f 11bd c1ba a73d fac6 b1bd
00000040: 2078 21bc 714b 873c 940a 1dbd db1e 89bc
00000050: d05e 9b3c 8515 80bd 27fa 5ebd c880 283d
00000060: 691e 6f3d 7af2 92bc d80d b5bd e343 94bd
00000070: 2887 203d d88c 99bd fb9a 91bd ee25 873c
00000080: 986a 1ebd bbe9 253c 453b b93d c7fb b0bd
00000090: 88be 273d 17b0 ac3d 3422 083d b5b0 a8bd
000000a0: ba60 aabd ba29 bcbd bb60 a73d 265c d9bc
000000b0: 9972 dd3c de4e a83d 9be8 943d 0d27 863d
000000c0: cdb8 143b 80a1 babd 696f cd3c 4971 073d
000000d0: 7f43 88bd 78a5 a33d 4d4f aabd 022d a6bd
000000e0: 7b3f 82bd 4f74 2c3b c659 01bd 1d0f 47bd
000000f0: 483f 57ba 37db b73d 4a09 9b3d cfee b93d
00000100: c032 5a3c 0c7c 623d 8829 673d b38f 09bd
00000110: 820d 163d 5322 3abd 17a2 a03d 5372 2cbd
00000120: 15d9 c7bd 3abd 533d dbc0 c0bd 882c 18bd
00000130: 8cea 263d 7d9e 25bc 0e37 6e3c febc 523c
00000140: 64f4 4f3c c1b9 e73c b59e 803d 3b37 8a3d
00000150: fb79 32bd e443 7d3d 0a72 1d3d 0fcf 12bd
00000160: 3d53 4cbd e276 a5bc ebbe e93c 827d 88bd
00000170: 48d8 703a 7d7c 5dbd 1f84 2bbd 01fd 0abc
00000180: 2ea3 6a3c 497c 8d3d 0f89 b83d 781a fd3c
00000190: f972 e33e f1de 0c3d c872 8dbe 5414 073f
000001a0: 039e 2cbe 997c 513d f5b5 0f3f 2704 d6bf
000001b0: 2833 d7be b40a be3f 5f02 1540 74bc 253f
000001c0: 3bb8 ffbb 2dc8 90be c6aa c13d eb35 55be
000001d0: 2440 ba3e d6ae 0f3e 38b6 ed3d 3153 0cbe
000001e0: 0fc0 033f 5abb c9bf 91a9 ad3d 5e7e 363d
000001f0: 63fa dd3b 4308 92bf 39b7 9fbf 6c44 6d3f
00000200: 9d83 e83e a10c 04be e485 1a3f 6eda 803f
00000210: c8c9 603d e701 1fbf a9ae c53e 82ba ca3d
00000220: 4660 1ebf cf33 233f 5101 a9bf 5772 773d
00000230: cfc7 91bf 5edf d8bf de0e 273f b28f 023f
00000240: 4dfa 0cbf 230d ab3f 7c77 903d 1d59 86bc
00000250: 0925 d5bf 0bb4 7e3d 863b 003e c8be 8c3f
00000260: bb76 4d3f dc0e ab3e 51b4 043f 1952 2ebf
00000270: 1db6 663f 9bec 903d d5f1 573f 0803 8a3d
00000280: 90c6 8c3e 3826 af3b 9d08 83bc 5a23 d93e
00000290: 092a 86bf a26f 633f 88c1 d93f c6c8 d33e
000002a0: 2e3d 8e3f 2a1f bb3d 96e7 163e cf8f ce3f
000002b0: 44cb 8fbc bf2e 0f3f d0f4 63bf 75e4 45bd
000002c0: d91a b53c 7a88 25bf 56b1 cbbf b5a3 633d
000002d0: af8e a0bf 4502 153f 5ed2 a83d 463a a8bd
000002e0: 5e32 9dbf f7c9 57bf fb42 cabf 5c8f 86bf
000002f0: 40f4 34be df07 823f be02 8cbd 1864 6fbf
00000300: 7aba 873c b1a9 1dbe 333e 913d 7851 073f
00000310: 1305 99bf 7be2 4a3f 9eb0 5ebe e46c 4b3f
00000320: 6bc6 0dbf e22e 17bd ad5c 263f c2ff 953f
00000330: e272 87be 5922 39bc c298 983f 4b9a adbe
00000340: 99ff 813e 9627 cabe 11dc 483f df7e ccbf
00000350: d61d ab3d 3d2d 1c3f d15d 07bf ea25 04bf
00000360: 7be6 12bf 934e 783d 26e7 9b3d 625b 1440
00000370: de26 a23f 1091 28bf 7e69 27bc 713c 19bd
00000380: d217 c6bc ed90 083f ad07 9fbf 28fd acbf
00000390: 0d72 eabe ebd5 83be a50e d7be ead6 f73d
000003a0: 61fe 25bd 25ad 27be f4e7 08bf c3e1 1f40
000003b0: ef22 a7bf 4da1 e93f 56ab 5dbe f9c8 6bbd
000003c0: 40cb 8d3f 6734 983f 421d 76bf 6f3d 9d3f
000003d0: 5a37 d7bf 3d25 1ebf 0baf 4c3b c174 87bd
000003e0: 64c7 cbbe 6f7c 513d 0766 ae3d 5568 67bf
000003f0: f2f1 4b3f 2285 02bf da4d b7bd 6275 6cbf

bias f4 [20]
-0.09081037 1.6942594 1.6813865 1.2121277 1.2365837 -0.08889335 0.7878714 2.0735996
2.1431935 3.845406 2.218933 0.6960497 3.4740906 2.0350027 1.5679786 1.0233408
1.0489094 1.3104063 1.4793029 3.6269386
00000000: cafa b9bd 7edd d83f ac37 d73f 0027 9b3f
00000010: 6048 9e3f b70d b6bd f1b1 493f dbb5 0440
00000020: 152a 0940 221b 7640 0003 0e40 5030 323f
00000030: 8057 5e40 7c3d 0240 86b3 c83f d5fc 823f
00000040: aa42 863f 65bb a73f cc59 bd3f c31f 6840

weight f4 [129, 20]
0.11520811 -0.02094538 1.330256 -0.6960413 0.546692 -0.18462294 0.16648062 0.61044735
-0.37355602 -0.67105865 -0.8872436 -0.40058613 -0.7511558 -0.4734767 -0.21661569 -0.19985642
0.1427823 0.2942564 -0.1631085 -0.5955281 -0.018476639 0.49250886 -0.7964872 -0.5575823
0.19248433 -0.07261438 0.54281473 -0.5350492 0.2889055 -0.09053578 0.7654758 -0.3611026
-1.5336114 -0.92631274 0.7920484 -0.59873295 0.46223074 -0.39821225 -0.29277897 -0.2796779
0.08371488 -0.24579203 0.8488835 -0.7945014 0.8523056 -0.20845297 0.19991823 1.2491527
-0.8951481 -1.0540041 -0.8314105 -0.55267626 -0.4191641 0.49912438 -0.009665294 -0.37821335
0.25493893 0.18961094 -0.22842896 -0.90666026 0.05863846 -0.09781281 0.6965476 1.5573105
0.04269822 0.19555259 -0.19785899 -0.26331428 -0.36932045 -0.6525238 -1.0101148 0.034853924
-0.4609526 -0.91138786 1.0041885 0.8561969 -0.1685632 -0.21074356 0.48495752 -1.1538543
-0.0011345182 -0.5217071 1.3598449 0.28454474 -0.038584188 -0.18988045 -0.44324526 -0.34410402
-0.21080577 0.28108677 -0.30892825 0.7957596 -1.0722626 -0.13099533 -0.37006348 -0.76503116
-0.11445237 0.900921 -1.539994 -0.33874393 -0.041039325 -0.4449705 3.6198087 1.1476045
0.18051004 -0.21957432 -0.6389931 -0.20018433 -1.344533 -0.33787546 -1.0521246 -0.30672577
-0.9596535 -0.35141662 2.4951584 1.2759014 -0.20336889 -0.82689863 -1.9711832 -0.17669739
-0.057681963 -0.42864898 -0.021139225 1.4908239 0.39000463 0.17131671 0.015793892 0.5711071
0.26214465 -1.0589306 0.21999443 0.14496419 -0.7088896 -0.21639846 0.7839215 0.36058998
-0.26919588 -0.26380122 -0.42288473 -1.7420046 -0.11061163 0.010794187 -0.8044797 0.4337501
-0.04266189 0.2149074 0.018931294 0.4975406 -0.7493784 -0.7064412 0.10530464 -0.42128348
-1.5681574 0.23873104 0.03672948 0.45493636 0.019477554 -0.42455164 0.75848997 -0.17358136
0.20184368 0.6415801 0.42712572 0.4072991 -0.7590293 -0.0043843323 -0.047678757 0.3650839
0.20004438 -0.57894295 -0.39068592 -0.03278282 -0.23361085 -0.21216343 -0.49669543 -0.99147916
0.057407435 -0.10690541 -0.10149539 -0.36383447 -0.013654947 0.3573935 -0.6429481 -1.3049654
1.0892454 0.09529443 0.015124097 -0.39645252 -1.7458649 0.76719254 -1.1610906 0.13121769
0.7203476 -1.8177452 -1.5532506 0.13368833 -0.44548333 0.07767676 -0.3639723 0.5637986
0.21262817 0.31856877 0.8002219 0.74449444 -0.20710094 -0.006315733 -0.28359386 -0.7644869
-0.53777045 -0.008802521 -1.3127332 0.08372673 -0.3184758 -0.9286268 0.5333785 0.10001067
-0.14443335 0.1727296 -0.023923531 -0.82993203 -0.03802777 0.3687473 -1.2143812 -0.9174675
-0.19227444 -0.040014733 -0.358235 0.6231514 2.2506607 0.99313104 -3.3683302 -0.38091427
-0.22485267 0.006682125 -1.0391089 -0.70745385 -0.20146522 -0.11606855 1.2446142 -0.99140066
-0.074037276 1.5924582 -1.5060079 -0.011946886 -0.7087234 -0.20466983 -0.21898212 1.5207517
0.62066996 -1.3937624 0.18673885 -0.4680902 0.41853368 -1.2014449 -1.4038867 0.3029046
00000000: 3bf2 eb3d a595 abbc d445 aa3f c32f 32bf
00000010: 02f4 0b3f cc0d 3dbe e579 2a3e 4746 1c3f
00000020: bc42 bfbe 80ca 2bbf 6622 63bf a019 cdbe
00000030: bf4b 40bf 8a6b f2be 81d0 5dbe 29a7 4cbe
00000040: 8635 123e c6a8 963e ea05 27be 8874 18bf
00000050: 525c 97bc 1f2a fc3e 96e6 4bbf b7bd 0ebf
00000060: 9d1a 453e d9b6 94bd e8f5 0a3f fcf8 08bf
00000070: 6ceb 933e d36a b9bd 39f6 433f 71e2 b8be
00000080: 614d c4bf d522 6dbf afc3 4a3f 9046 19bf
00000090: 82a9 ec3e 7ae2 cbbe 20e7 95be f131 8fbe
000000a0: b572 ab3d e8b0 7bbe 6e50 593f 7264 4bbf
000000b0: b330 5a3f b274 55be 5db7 4c3e 3ce4 9f3f
000000c0: 6d28 65bf 9be9 86bf 52d7 54bf 317c 0dbf
000000d0: ad9c d6be 3b8d ff3e 2e5b 1ebc 2ea5 c1be
000000e0: 5b87 823e 5f29 423e 48e9 69be e31a 68bf
000000f0: e22e 703d 1552 c8bd f250 323f f355 c73f
00000100: 54e4 2e3d f03e 483e 8c9b 4abe 21d1 86be
00000110: 9217 bdbe cd0b 27bf 714b 81bf fdc2 0e3d
00000120: fb01 ecbe b750 69bf 4089 803f b82f 5b3f
00000130: d59b 2cbe 29cd 57be 5a4c f83e 7fb1 93bf
00000140: 1db4 94ba 998e 05bf 660f ae3f d9af 913e
00000150: 740a 1ebd 0570 42be 0bf1 e2be 672e b0be
00000160: 78dd 57be 9bea 8f3e d82b 9ebe e7b6 4b3f
00000170: e73f 89bf a423 06be f678 bdbe 15d9 43bf
00000180: 0166 eabd c2a2 663f 861e c5bf d86f adbe
00000190: da18 28bd 2cd3 e3be f2aa 6740 b4e4 923f
000001a0: a0d7 383e 17d8 60be 0d95 23bf 1ffd 4cbe
000001b0: a819 acbf 03fe acbe 05ac 86bf 290b 9dbe
000001c0: daab 75bf e1ec b3be adb0 1f40 bd50 a33f
000001d0: ef3f 50be a1af 53bf bb4f fcbf 29f0 34be
000001e0: ec43 6cbd e177 dbbe 2b2c adbc 51d3 be3f
000001f0: b0ae c73e a66d 2f3e 3162 813c 1334 123f
00000200: d337 863e 0a8b 87bf 3846 613e 7e71 143e
00000210: ca79 35bf 8f97 5dbe 14af 483f 409f b83e
00000220: 0bd4 89be f410 87be 5984 d8be 02fa debf
00000230: 5a88 e2bd 1ada 303c 62f2 4dbf 7e14 de3e
00000240: 3cbe 2ebd af10 5c3e cd15 9b3c a4bd fe3e
00000250: 43d7 3fbf 55d9 34bf f6a9 d73d 78b2 d7be
00000260: 62b9 c8bf e975 743e a771 163d 6bed e83e
00000270: 648f 9f3c d55e d9be 662c 423f 50bf 31be
00000280: 1cb0 4e3e 983e 243f 39b0 da3e 8289 d03e
00000290: bf4f 42bf 72aa 8fbb cd4a 43bd 47ec ba3e
000002a0: 6fd8 4c3e 9b35 14bf fc07 c8be 4747 06bd
000002b0: af37 6fbe 5f41 59be dd4e febe 94d1 7dbf
000002c0: 0f24 6b3d 39f1 dabd d1dc cfbd 8348 babe
000002d0: 00b9 5fbc 48fc b63e 3f98 24bf 1b09 a7bf
000002e0: 656c 8b3f ba29 c33d 0fcb 773c d3fb cabe
000002f0: 8078 dfbf bb66 443f 9e9e 94bf ee5d 063e
00000300: b368 383f e0ab e8bf ead0 c6bf 98e5 083e
00000310: 6416 e4be fe14 9f3d 945a babe 1b55 103f
00000320: 33bb 593e 721b a33e 58db 4c3f 3097 3e3f
00000330: 4512 54be 35f4 cebb 3733 91be 6ab5 43bf
00000340: 53ab 09bf 7338 10bc a407 a8bf eb78 ab3d
00000350: 430f a3be 7cba 6dbf 7e8b 083f 65d2 cc3d
00000360: 56e6 13be 07e0 303e 48fb c3bc 6d76 54bf
00000370: 02c3 1bbd 72cc bc3e d870 9bbf 26df 6abf
00000380: 97e3 44be 7de6 23bd 946a b7be da86 1f3f
00000390: d30a 1040 d63d 7e3f b992 57c0 3207 c3be
000003a0: c73f 66be baf5 da3b 8501 85bf b21b 35bf
000003b0: e64c 4ebe 59b5 edbd 854f 9f3f 6fcc 7dbf
000003c0: dba0 97bd acd5 cb3f dec4 c0bf dfbc 43bc
000003d0: e66e 35bf f894 51be d93c 60be fea7 c23f
000003e0: 3ae4 1e3f ce66 b2bf 7838 3f3e 85a9 efbe
000003f0: 0c4a d63e f2c8 99bf 8fb2 b3bf 5016 9b3e

bias f4 [129]
-0.41504973 -0.29519698 0.019100558 -0.33078328 -0.5709894 -0.28633258 -0.39607853 -0.31238753
-0.65858454 -0.35039595 -0.17362836 -0.5251297 -0.5409228 -0.3524963 -0.8516754 -0.6529683
-0.34118995 -0.5129924 -0.5805722 -0.54506284 0.0924089 -0.22113512 -0.121589094 -0.12656601
-0.30231416 -0.26613262 0.058587816 -0.26916906 -0.48233655 -0.29149416 -0.20797567 -0.07765105
-0.3245848 -0.3554572 -0.6411503 -0.20906912 -0.5094352 -0.36353067 -0.8665605 -0.46276477
-0.5579631 0.116805024 -0.37039983 -0.38893673 -0.0027744456 -0.49636084 -0.24656242 -0.41169637
-0.45320565 -0.18156905 -0.42725027 -0.29378468 -0.4734426 -0.4719711 -0.50194395 -0.2838441
-0.24096234 -0.13273743 -0.14785455 -0.33542278 -0.21160004 -0.39784673 -0.27155542 -0.6538955
-0.37269866 -0.27981907 -0.30026752 -0.24999833 -0.49082676 -0.34554452 -0.15111431 -0.21239068
-0.46878064 -0.31693584 -0.49230683 -0.22771892 -0.4186528 -0.21010996 -0.13667 -0.8854331
-0.53518814 0.028264657 -0.52299225 -0.4486311 -0.44384354 -0.31842324 -0.51879436 -0.46122125
0.22747423 -0.57303816 -0.056592185 -0.48277774 -0.4725328 -0.1994751 -0.7145213 -0.35547408
-0.17846932 -0.37561613 -0.08141437 -0.17033267 -0.5057015 -0.67514557 -0.43021488 -0.46191493
-0.3845968 -0.39839387 -0.57723963 -0.40101063 0.15967879 -0.5158739 -0.7187144 -0.07781506
-0.4540124 -0.62791294 -0.33362943 -0.4857116 -0.20986347 -0.06655775 -0.2666019 -0.2737368
-0.49421704 -0.12751237 -0.31776097 -0.24880265 -0.35061583 -0.73430437 -0.3896556 -0.43509293
-0.5452936
00000000: 6681 d4be 0f24 97be c678 9c3c 6d5c a9be
00000010: 5c2c 12bf 2f9a 92be ceca cabe 42f1 9fbe
00000020: ff98 28bf 1967 b3be a2cb 31be e66e 06bf
00000030: eb79 0abf 657a b4be 6607 5abf ee28 27bf
00000040: 73b0 aebe 7853 03bf 61a0 14bf 3d89 0bbf
00000050: e140 bd3d 3f71 62be b403 f9bd 859a 01be
00000060: ecc8 9abe 8942 88be c7f9 6f3d 87d0 89be
00000070: d1f4 f6be b93e 95be 93f7 54be 8407 9fbd
00000080: fb2f a6be 7cfe b5be 6d22 24bf 3716 56be
00000090: 586a 02bf b120 babe e9d6 5dbf 81ef ecbe
000000a0: abd6 0ebf 7937 ef3d 0ca5 bdbe b722 c7be
000000b0: 79d3 35bb 0223 febe dc7a 7cbe dec9 d2be
000000c0: 920a e8be 3ded 39be 8cc0 dabe f26a 96be
000000d0: 1267 f2be 32a6 f1be 667f 00bf 0454 91be
000000e0: d5be 76be 52ec 07be 2f67 17be 89bc abbe
000000f0: aead 58be 91b2 cbbe 5009 8bbe b265 27bf
00000100: 5cd2 bebe 7244 8fbe aabc 99be 90ff 7fbe
00000110: a54d fbbe 36eb b0be b6bd 1abe f17c 59be
00000120: 0404 f0be 6a45 a2be a40f fcbe 262f 69be
00000130: a959 d6be 1127 57be 38f3 0bbe beab 62bf
00000140: 1702 09bf 488b e73c d2e2 05bf fab2 e5be
00000150: 763f e3be 5f08 a3be b5cf 04bf 3125 ecbe
00000160: 01ef 683e a1b2 12bf 35cd 67bd a52e f7be
00000170: d2ef f1be 3343 4cbe deea 36bf b300 b6be
00000180: a9c0 36be c250 c0be 94bc a6bd b06b 2ebe
00000190: a775 01bf 57d6 2cbf 2045 dcbe 1d80 ecbe
000001a0: dfe9 c4be 48fa cbbe fac5 13bf 4451 cdbe
000001b0: d682 233e 5010 04bf abfd 37bf 815d 9fbd
000001c0: 5074 e8be e7be 20bf 7ad1 aabe 31af f8be
000001d0: 73e6 56be 6e4f 88bd 0b80 88be 3b27 8cbe
000001e0: 040a fdbe 9a92 02be 91b1 a2be 1fc6 7ebe
000001f0: eb83 b3be 5ffb 3bbf f080 c7be 80c4 debe
00000200: 5d98 0bbf
