model_state_dict.pt (torch, 4504 bytes, 4 tensors)

hid1.weight f4 [20, 10]
00000000: 6f3f 513e a17f 2e3e d2d9 be3b f61e 07be
00000010: 411f 2f3d bbf3 34be 257e 973e 476f d23d
00000020: 9f4e 90be 679f 863e 5573 5e3e 183d 353d
00000030: 700f c83d aa13 833e c3b0 41be 03a6 23bd
00000040: 607e 653c a260 85be 7935 84be 6604 8dbe
00000050: e771 f53d 2e8f 9fbe 04cb 813e deb2 9abe
00000060: 0f6e 193d 6f22 67be c556 053d b606 a9bd
00000070: 63e2 d9bc 8049 4fbe cee7 e6bd f3ba 143e
00000080: 41c0 243e 48fb 4e3d e1cf de3d 8436 42be
00000090: 2504 dabc c0b4 92bd 0b13 c63d f12a 9dbd
000000a0: 9cbc 95be 476e 60bd 6b76 d3bd 4d0f e53c
000000b0: 59d7 37be 316b e3bd 4adc d7bd 751e 983e
000000c0: 33c0 4d3e fe33 9cbe a06c 48bd f4a9 813c
000000d0: 6b39 943e 079c 29be b413 143e c4c4 983e
000000e0: 9da5 0f3e 1fbd 1d3e 01fd 383e 8630 953e
000000f0: 70a8 9abe e59c d93b b746 983e 8064 76be
00000100: f1e1 513d b92d 46bd 47d5 8d3e 8526 21bd
00000110: 2d4e 29bd 8d30 463e 291e 87bd a5fc 41be
00000120: 800d cebd e1b0 8c3e a0c3 633e d769 a0be
00000130: d2aa b73d 2147 0d3d 21df 7dbb 29f4 a63c
00000140: bc0b fa3d e5d2 68be 9b72 553e 0a2f 2ebd
00000150: 51ff 9dbe aa9e ca3d e3d3 10be 3d59 26be
00000160: 6c48 c5bd 3e44 0abd b903 713e f0ca a13e
00000170: e51a 3f3e 4a19 533e 46ba e73d 0ed7 73be
00000180: 3291 3c3d 1498 933d 2077 79be 1558 20be
00000190: 9d9b 633e cc47 00be 2eec 47be aff4 e83c
000001a0: 92ff 4c3e 8a14 fcbd e7a4 76be 7341 85be
000001b0: e73f 643e a578 083d 4088 4fbe 9313 0d3e
000001c0: ee23 37bd 5164 edbd fa96 693e 82d9 86be
000001d0: 08cf debd 2238 2e3b e1be 9e3e ed98 163e
000001e0: d502 1f3e 00d2 9d3e f5fe ebbd fd19 04bd
000001f0: 15e8 9cbe d7f4 87bd 79c6 993e 40a9 413e
00000200: 7cc4 e63d 3e66 04be b532 063d 428f 37be
00000210: a286 6e3c 6ead 3ebe 4142 2d3e d394 46be
00000220: 57be 043e f1c7 8fbe 12f1 883e 6dce 7bbe
00000230: b95c 563e f865 993e d51a e0bd 25c2 58bd
00000240: 9b25 25be 0caa 153e 1e57 3abc e9c1 2dbe
00000250: 84c0 30be 3d8e adbd 107d 32be 25c8 823e
00000260: 9f45 9dbe e93c 6ebe dce2 5a3e 470a 2cbe
00000270: b634 7ebd 5d44 7b3e 95e8 803d 40d2 d4b8
00000280: 51f8 613e cddc 2abe 226c 583d 8652 4cbd
00000290: 1237 dfbc 618e 86be d071 393e f57a 67be
000002a0: e3bc 843c 9cbb 1cbc 82e8 eb3d 211d 71be
000002b0: fcf1 06bd 345f febd 639c 50bd d0c1 653d
000002c0: 208e 91bd 4f27 47be c109 c93c bbf9 63bb
000002d0: f3de 5bbe bc47 f0bd 1f65 5c3e dc7a 6cbe
000002e0: ec5f 953e 4fab 7d3e 4a91 1e3d 21f7 17bc
000002f0: db56 893d f800 503e c4b0 fa3c 64a1 54bc
00000300: 6138 863e 1892 123e 9f0a 87be f798 97be
00000310: 863d 5c3e e8e7 033d 4cc1 62bb d8ad 973c
0.20434354 0.17040874 0.005824306 -0.13195404 0.042754415 -0.17671101 0.29588428 0.10275131
-0.28184983 0.2629349 0.21723683 0.044247717 0.097685695 0.2560094 -0.18915085 -0.039953243
0.014007181 -0.26050287 -0.25822046 -0.27542418 0.11984616 -0.31163925 0.253502 -0.3021459
0.037458476 -0.22571729 0.032553453 -0.08253233 -0.026597207 -0.20242882 -0.11274682 0.1452444
0.16088964 0.05053261 0.108794935 -0.18966109 -0.026613304 -0.071633816 0.09671601 -0.07674206
-0.2924546 -0.05479267 -0.10325321 0.027961398 -0.17953242 -0.111044295 -0.10540064 0.29710737
0.2009285 -0.30508417 -0.048931718 0.01582811 0.28950056 -0.16563426 0.14460641 0.2983762
0.1402802 0.15404175 0.18065263 0.29138583 -0.30206633 0.0066410177 0.2974145 -0.24061775
0.051240865 -0.04838345 0.2770178 -0.039343376 -0.04133432 0.19354458 -0.065975495 -0.18944032
-0.10061169 0.27478698 0.22242594 -0.3133075 0.08968128 0.034491662 -0.0038737732 0.020380097
0.122092694 -0.227367 0.208445 -0.04252533 -0.30858853 0.09893544 -0.14143328 -0.16244979
-0.09632954 -0.033756487 0.23536576 0.31600142 0.18662603 0.20615116 0.11314826 -0.23812506
0.046036907 0.07206741 -0.24361849 -0.156586 0.2222733 -0.12527388 -0.19523689 0.028436987
0.20019367 -0.12308605 -0.24086343 -0.26026496 0.22290002 0.03331818 -0.20266819 0.13776998
-0.044712 -0.115913995 0.22811499 -0.2633782 -0.10879332 0.002658375 0.31005004 0.14706774
0.15528424 0.3082428 -0.115232386 -0.032251347 -0.30645815 -0.06638496 0.30034235 0.1891222
0.11267945 -0.12929627 0.0327632 -0.17925742 0.014558466 -0.18620846 0.16919805 -0.1939271
0.12963234 -0.2808223 0.26746422 -0.24590464 0.20933808 0.29960608 -0.10942618 -0.052919526
-0.16127627 0.14615649 -0.011373309 -0.16968502 -0.17260939 -0.084743954 -0.1743052 0.25543323
-0.3071718 -0.23265423 0.21375602 -0.16800795 -0.062061988 0.24537797 0.062943615 -0.0001014811
0.22067381 -0.16685791 0.0528375 -0.049883388 -0.02724794 -0.262805 0.18109822 -0.22605498
0.01620335 -0.009566214 0.11518957 -0.23546268 -0.032945618 -0.12420502 -0.050930392 0.056093037
-0.07107186 -0.19448589 0.024540784 -0.0034786302 -0.21471767 -0.11732432 0.2152295 -0.23093742
0.29174745 0.2477238 0.038712777 -0.009275229 0.067060195 0.2031287 0.030601867 -0.012977932
0.2621489 0.14313543 -0.2637529 -0.2960889 0.21507844 0.032203585 -0.0034600077 0.018515512

hid1.bias f4 [20]
00000000: c859 6dbe 342b 9b3e 4d15 203e 48be 4b3e
00000010: c4a6 353e 46cd 8abe b415 a03e 3abf 853e
00000020: 0efc 013d 34ee 28be 05c4 8c3e bf7d 793d
00000030: 3167 1e3e ca7f 833c 2941 8abb 7947 a2bc
00000040: 85e0 9e3e d957 793e 9833 193e f0d6 8ebd
-0.2317878 0.303064 0.15633126 0.19896805 0.17739397 -0.27109736 0.31266558 0.26122457
0.03173452 -0.16497117 0.274933 0.060910936 0.15469052 0.016052146 -0.0042191935 -0.019809471
0.3103067 0.24349917 0.14961088 -0.0697459

hid2.weight f4 [19, 20]
00000000: 2611 fdba 0c46 753d dff0 94bd 1eae ae3d
00000010: 5d52 da3d 7b72 43bd b345 ab3d 310d 56bc
00000020: c776 a9bd 21d6 013e c264 503e 5d4f 9e3d
00000030: c7f2 27bc 0b87 4e3c c051 4b3e 43ef 5a3e
00000040: 3f65 0d3d 65b8 31be 1045 62be 8746 ea3c
00000050: e413 e03d 80b4 cbbd 68f1 b4bd 958c 5cbe
00000060: 9634 5b3e f174 403e d441 ab3d a45f e93d
00000070: 2063 5fbe bd92 a7bd 4612 8e3d d2b5 fd3d
00000080: b95e d5bc fc2b 7fbd e9bb 49be 8d03 303e
00000090: b597 c93d dc6b 803d abf0 dd3d c3b1 d3bd
000000a0: b851 05be b003 13be 9a50 e8bd 3bc7 513e
000000b0: 4411 153d 656f db3c cd4e 593d a0e3 52bd
000000c0: f270 e43c 0bb6 8a3c d9e9 983d 2309 9fbd
000000d0: f504 0fbe f3a0 cb3d bd5b 27be 5b7e 323e
000000e0: 3554 a43c faa3 6e3d cc67 15be d303 9ebd
000000f0: 534e babc ad0f dc3d 2e51 223e f406 bb3d
00000100: eae9 2c3e 31e3 12be 4bcb f9bd ae42 7ebd
00000110: a8b5 b23d 7d6b 483e 0a3e 633e b40d 6a3d
00000120: 8f5f 283e ddbf 5e3e 8d54 19be ed5e 17be
00000130: e181 233e c828 5d3e e2a8 00be e5b3 49be
00000140: 9864 513e 1dd2 acbd ed78 07be 621f a4bc
00000150: 5698 1b3e 3513 58bd 44df 123e b83d 54be
00000160: 7e85 283d 02b6 85bc 3d1c 8d3c 4a2f 2dbe
00000170: 3e99 febc 3c92 083e 5663 99bd 06c6 5abe
00000180: 7461 8a3d 5d23 8dbd e404 f53d 4fef 3bbe
00000190: cb0b 463d 5a09 133d 1fd4 573c a68c 823d
000001a0: ae40 12be 423b c0bd 2ccc 09be fa8d 833c
000001b0: ce5b d7bd 5b39 153e 2836 19be c71c 483e
000001c0: df67 b3bd 2e38 89bd 03f8 35be f0ad c7bd
000001d0: 24a4 a03c d9aa 80bc 87f6 9a3b 2026 c63d
000001e0: ad69 383e 4b8f ba3d 534d ecbd 5c2f 423e
000001f0: e54d ea3d 4011 c8bc 38f4 7bbd de95 34bd
00000200: 2fe4 53be c10e 8f3d a3a4 f7bd 939f 173e
00000210: 29c9 45be 762d 82ba 3d62 41bd 1d8a dbbd
00000220: d85a 53be ce1a 43be fb70 073e 41e3 11bc
00000230: dc00 3bbe cfa5 3a3e 98b7 6b3d 7076 0cbe
00000240: 5551 543d 1b0e 17be 31cc 033e d813 61be
00000250: dc23 45be 4ece e5bd d8b8 32be f798 c0bc
00000260: 396c 1a3e ff0c 303e c3f7 3a3d c548 013e
00000270: 0ef0 edbc b72d bfbc b159 48be 2b9a e0bd
00000280: 6a19 383e b5a2 1fbe 7c07 33bd 386b 49be
00000290: 725d 593c 76dd 3a3e 829f 143d 133b 38be
000002a0: 998b 39be 8c8c 5f3e 2815 cc3d c10d 0b3c
000002b0: aff5 25be f68d 013e 30e2 963d 778a 3c3e
000002c0: ffe0 2e3e 86d6 2f3e 0efc 193e d3a2 5f3e
000002d0: fdcc 63be 8fd0 923c 2f5e 6ebd 7390 af3d
000002e0: 17e8 a83d 0cd3 35be 226e 4e3e e261 1dbe
000002f0: 99a0 523e 6dd1 23be bd37 4c3e 9b42 19bd
00000300: 7097 19bd 6481 ca3c 7051 efbd 4770 afbd
00000310: 81e0 aa3d c0c3 513e f9f2 643e 5c1c 603c
00000320: 6b4c 9abd dc6c 5c3e 7ae2 efba f4e7 623e
00000330: 13a5 a7bd bcc5 963d c3bb 483e c63e e23d
00000340: 08e2 b3bb d534 d8bc 7db8 d5bd bf59 583e
00000350: 68a3 58be 5d53 123d cef8 2c3e 988e c0bd
00000360: 4423 423d 3e47 3d3e c336 34be 563a 063e
00000370: 2332 53bd 5d0d d7bd e672 343e 3e62 573e
00000380: 7dfa 523e b927 3ebe 62c3 68bd 11a4 b4bd
00000390: e33e 89ba ec34 3e3e 8b37 0dbe 956a b33d
000003a0: a756 f8bc 1b56 17be f56f 01be afb5 03be
000003b0: 56e8 213e c018 a8bd 51d4 123e 8c85 33be
000003c0: 1bf4 b53d c2c7 e1bd 7d14 0e3e f1c8 48bb
000003d0: 7f60 4b3d f37a 43be 6b18 eebc e9ee 193e
000003e0: be00 c83d 4d3c be3d 9163 a33d 390c d3bd
000003f0: 84f7 2f3d d418 2d3e b1a6 94bd 5bab 7d3d
-0.0019307479 0.059881255 -0.07272505 0.08529304 0.10660241 -0.0477166 0.083629034 -0.0130646685
-0.08274608 0.1267934 0.20350936 0.07729981 -0.010250754 0.012605439 0.19855404 0.21380334
0.034520384 -0.17355497 -0.22096658 0.028598083 0.10941294 -0.09946537 -0.08835107 -0.21538003
0.21406779 0.1879461 0.08362165 0.11395195 -0.21815157 -0.08182285 0.06937079 0.12388195
-0.026046144 -0.062297806 -0.19700588 0.17188855 0.09843389 0.062705725 0.108369194 -0.1033664
-0.13019454 -0.14356875 -0.113434985 0.20486157 0.03639342 0.026786515 0.053053666 -0.05148661
0.027885888 0.016932508 0.07466478 -0.077654146 -0.13966735 0.09942808 -0.16343589 0.17431013
0.020059684 0.05826185 -0.14590377 -0.07715573 -0.022742426 0.107451774 0.1585128 0.091321856
0.16886106 -0.14344479 -0.12196978 -0.06207531 0.087260544 0.19572254 0.22191635 0.057141975
0.16442703 0.21752878 -0.1497366 -0.14782305 0.15967514 0.21597588 -0.12564424 -0.1969753
0.2044853 -0.084385134 -0.13229723 -0.020034496 0.1519483 -0.052752692 0.14342982 -0.20726669
0.041142933 -0.01632214 0.01722538 -0.1691257 -0.031078931 0.13337034 -0.0748965 -0.21364602
0.06756869 -0.06891511 0.119638234 -0.18353008 0.04835109 0.03589759 0.013173132 0.06374483
-0.14282486 -0.093863025 -0.13456792 0.01605891 -0.10515557 0.1457266 -0.14962065 0.19542228
-0.08760046 -0.067001686 -0.1777039 -0.09749973 0.019609518 -0.015706467 0.0047290954 0.096752405
0.18009062 0.09109362 -0.11538186 0.18963379 0.114406385 -0.024422288 -0.061512202 -0.044088237
-0.20692514 0.06985236 -0.12091949 0.14806966 -0.19315018 -0.0009931761 -0.047212828 -0.107197024
-0.20640123 -0.19053194 0.13226692 -0.008904279 -0.18262047 0.18227313 0.057548136 -0.13717055
0.051835377 -0.14751475 0.12870862 -0.21980226 -0.1925196 -0.1122099 -0.17453325 -0.02351044
0.15080346 0.17192458 0.04564644 0.12625416 -0.029045131 -0.023337228 -0.19565465 -0.10966905
0.17978445 -0.15589412 -0.04370831 -0.19669807 0.013266908 0.18248543 0.03628493 -0.17991285
-0.18119659 0.21830958 0.09964973 0.008487166 -0.16207002 0.1265181 0.073673606 0.18412195
0.17078017 0.17171678 0.15037557 0.21839456 -0.22246166 0.017921714 -0.05819529 0.085724734
0.082473926 -0.17756289 0.201592 -0.1536937 0.20569076 -0.15997858 0.19943137 -0.037417036
-0.037497938 0.024719901 -0.11685455 -0.08566337 0.08343602 0.20484829 0.22358312 0.013678636
-0.07534107 0.21525902 -0.0018301748 0.22158796 -0.08185782 0.073619336 0.19602875 0.11047129
-0.0054895915 -0.02639238 -0.10435579 0.21127985 -0.21156085 0.035724033 0.16891786 -0.094021976
0.047396913 0.18484208 -0.17599015 0.13108191 -0.051561486 -0.10500596 0.17621955 0.2103357
0.20603366 -0.1856984 -0.056826957 -0.08820356 -0.0010471012 0.18574876 -0.13790719 0.08760563
-0.030314757 -0.1477894 -0.12640364 -0.12862276 0.15811285 -0.08207846 0.14338805 -0.17531413
0.0888445 -0.11024429 0.13875003 -0.0030637349 0.049652573 -0.1908987 -0.029064378 0.15032543
0.097657666 0.09288845 0.07977975 -0.10305066 0.04296066 0.16904002 -0.07258356 0.061930995

hid2.bias f4 [19]
00000000: a442 043e 71c0 8abd c919 16be bcca e93d
00000010: dddf 00be 7ce3 b4bd 3025 823b 91fe a33c
00000020: e0c0 373e d91d 26bd 54b4 d03d 968b 383d
00000030: 104e d3ba 4205 933d 0e35 943d 4544 5d3d
00000040: cb07 52bd 9397 73bd 756b 5e3d
0.12916046 -0.067749865 -0.14658274 0.11415622 -0.12585397 -0.08832452 0.0039717183 0.020018848
0.1794467 -0.04055581 0.10190645 0.045054995 -0.0016121287 0.07178737 0.07236682 0.054020185
-0.051276963 -0.059470724 0.054301698
