models/model.pt (torch, 484864 bytes, 4 tensors)

weight f4 [20, 5191]
0	0x3e70b018	0.23504674
1	0xbe357aa4	-0.17722565
2	0xbdee353e	-0.11631249
3	0xbe23c8ca	-0.15994564
4	0xbd8d6cb0	-0.06905496
5	0xbd292bc4	-0.041301504
6	0xbd119827	-0.035545494
7	0xbe51302a	-0.2042853
8	0x3e8c17d9	0.27361944
9	0x3e6fc85a	0.23416272
10	0xbcfa442c	-0.030550085
11	0x3e8c0f55	0.27355447
12	0xbdf5f82e	-0.12010227
13	0xbd09eda4	-0.033673897
14	0x3ccb4a5f	0.024815736
15	0x3e8b832f	0.27248523
16	0x3e8f6849	0.2800925
17	0x3e8bdaaa	0.27315265
18	0x3e8d93e0	0.27651882
19	0xbdeb60cc	-0.11493072
20	0xbe0bd130	-0.13654017
21	0x3e430d6a	0.19048086
22	0xbdd39649	-0.10331399
23	0x3cb2da58	0.02183263
24	0xbe05f6b5	-0.13082393
25	0xbd6377eb	-0.055534285
26	0xbcf32f75	-0.029685715
27	0x3e724f16	0.23662981
28	0x3e71d2bc	0.23615545
29	0x3d982d53	0.0743052
30	0x3cb9c749	0.022678034
31	0x3be20ade	0.006898268
32	0xbe2381e5	-0.1596752
33	0xbe7f6723	-0.24941687
34	0xbe3fb675	-0.18721946
35	0x3e8038f7	0.2504346
36	0x3e7dd913	0.24789838
37	0x3e8b8bdd	0.27255145
38	0x3e86f666	0.26359862
39	0xbd6b6f6c	-0.057479307
40	0x3e281f47	0.16418181
41	0x3e86bce2	0.2631598
42	0xbd88b1ce	-0.066745386
43	0xbe535a2d	-0.20639868
44	0xbd8562be	-0.06512974
45	0x3d013a7d	0.03154992
46	0xbe1861af	-0.14881013
47	0xbd73cc45	-0.05952098
48	0x3dc69001	0.09695435
49	0xbd93cc37	-0.07216685
50	0x3e9046ad	0.2817892
51	0xbe62ad3c	-0.22136396
52	0x3ccc9144	0.024971612
53	0x3e256cdf	0.16154812
54	0x3e5befc7	0.21478187
55	0xbe1f2a7e	-0.15543553
56	0xbdf24e24	-0.118313104
57	0x3e60b916	0.21945605
58	0x3e685a1e	0.22690627
59	0xbd3115ed	-0.0432338
60	0xbe229c87	-0.15880023
61	0x3e93ade0	0.28843594
62	0xbdffe44b	-0.12494715
63	0x3e59e687	0.21279345
64	0x3e7b015a	0.24512234
65	0x3e8c6f2e	0.27428573
66	0x3d2af085	0.041733284
67	0xbe59b0ac	-0.21258801
68	0xbe85a6ba	-0.26103765
69	0xbe427f6e	-0.18993923
70	0xbe41f5d4	-0.18941432
71	0x3e94c84f	0.29059073
72	0xbe685ada	-0.22690907
73	0x3db0a4a5	0.086251535
74	0x3e08a397	0.13343655
75	0x3e8da493	0.27664623
76	0x3e8ab4e6	0.2709114
77	0xbd7154b9	-0.05891869
78	0xbd9c63ad	-0.07636199
79	0xbe3f3e5e	-0.18676135
80	0xbe69340d	-0.22773762
81	0x3e88f918	0.26752543
82	0xbe4cafc7	-0.19988929
83	0x3e29c1a2	0.16577771
84	0x3e92ebaf	0.28695437
85	0x3e93547b	0.2877539
86	0xbe75428f	-0.23951171
87	0x3e3c1e47	0.18370925
88	0xbd466627	-0.048437264
89	0x3e32cbe8	0.17460597
90	0x3e056e46	0.13030347
91	0x3e9364bd	0.28787795
92	0x3c5f0255	0.013611396
93	0xbe221afa	-0.15830603
94	0xbe5320e6	-0.20618019
95	0xbd8b6c20	-0.068077326
96	0xbcfb4f2c	-0.0306774
97	0xbe873248	-0.2640555
98	0xbd85c7e4	-0.06532267
99	0xbe2a8804	-0.16653448
100	0xbd82e66a	-0.06391604
101	0xbd52fbbd	-0.051509608
102	0xbe85f40c	-0.26162755
103	0x3e14cdc9	0.14531626
104	0x3d9c027b	0.076176606
105	0x3d04c512	0.032414503
106	0x3e3bbbbe	0.18333337
107	0x3deda132	0.11603011
108	0x3e352811	0.17691065
109	0x3e69f945	0.22848995
110	0x3bc1ad25	0.005910533
111	0x3e8947c6	0.2681257
112	0x3e899397	0.26870415
113	0xbe84c615	-0.25932375
114	0x3e0984cd	0.13429566
115	0xbe7c9e82	-0.24669841
116	0x3e353479	0.17695798
117	0x3e2c551b	0.1682934
118	0x3e8d9264	0.2765075
119	0x3e54c909	0.20779814
120	0x3bc045cb	0.005867695
121	0x3e8a38cb	0.26996455
122	0x3e8f1111	0.27942708
123	0xbe80547e	-0.25064462
124	0x3d8906e8	0.066907704
125	0x3d0f7fa5	0.03503384
126	0xbe010950	-0.12601209
127	0xbe7c1358	-0.24616754
128	0xbdb9ef03	-0.09078791
129	0xbdee07af	-0.11622559
130	0x3e8fc835	0.28082433
131	0xbe5d33b2	-0.21601751
132	0x3dcbdef1	0.09954632
133	0xbdcf2bc5	-0.1011577
134	0x3e1bb968	0.15207446
135	0x3e0bf682	0.13668254
136	0x3e8cbbe1	0.2748709
137	0xbd437161	-0.04771555
138	0xbce2504c	-0.02762618
139	0x3d386272	0.04501576
140	0x3d4ead7d	0.05045842
141	0x3e93446c	0.2876314
142	0x3e905142	0.28186995
143	0xbd968dff	-0.07351302
144	0xbddf6b2c	-0.10909113
145	0xbdf50580	-0.1196394
146	0x3e8f31ee	0.2796778
147	0xbd9d702a	-0.07687409
148	0x3e8b3826	0.27191275
149	0xbe70b205	-0.23505409
150	0x3e37d4fb	0.1795234
151	0xbe510159	-0.2041067
152	0xbe5a1c3e	-0.21299836
153	0x3e8f1830	0.2794814
154	0xbe64cb1b	-0.22343104
155	0x3cd03bc8	0.02541913
156	0xbde01a6f	-0.10942542
157	0x3e5d0067	0.21582185
158	0xbe803033	-0.25036773
159	0xbe2422c9	-0.16028894
160	0xbd0fce4c	-0.03510885
161	0x3de104c5	0.10987238
162	0xbe026ae1	-0.12736084
163	0xbe291936	-0.16513523
164	0x3e94e2c9	0.29079273
165	0xbe83c3ac	-0.25735223
166	0xbcb054ca	-0.021524806
167	0x3e21e96f	0.15811704
168	0x3e5029d8	0.20328462
169	0x3e92e997	0.2869384
170	0xbd7177fc	-0.058952317
171	0x3c90b834	0.01766596
172	0xbe013bb0	-0.12620425
173	0xbd76478f	-0.060126837
174	0x3d69ddf3	0.057096433
175	0x3e8ce7f7	0.27520725
176	0xbe84e6da	-0.25957376
177	0xbe59a758	-0.21255243
178	0x3e94d713	0.2907034
179	0xbdf7ca0b	-0.120990835
180	0x3e927781	0.286068
181	0xbd9ca701	-0.07649041
182	0x3e374f81	0.17901422
183	0xbe1e2d00	-0.15446854
184	0x3e8d4ee1	0.27599242
185	0x3d5f554f	0.054524716
186	0x3e87c12b	0.26514563
187	0x3dab711e	0.08371185
188	0xbe6ff616	-0.23433718
189	0x3e6b42fa	0.22974768
190	0xbdc03e97	-0.09386938
191	0x3e8b17c5	0.27166572
192	0x3e8f9717	0.2804496
193	0xbd0563eb	-0.032565992
194	0x3e097c69	0.13426365
195	0x3c85a09d	0.016311938
196	0xbe5e7e09	-0.21727766
197	0x3e92e4bb	0.28690132
198	0xbddf8e65	-0.109158315
199	0xbe1c37ab	-0.1525561
200	0x3e779a64	0.24179989
201	0xbd96e98e	-0.07368766
202	0x3d5ccc85	0.053905983
203	0x3e166382	0.14686397
204	0xbe0246c1	-0.12722303
205	0xbd8795ce	-0.0662037
206	0xbd1765b8	-0.03696224
207	0x3e826621	0.25468543
208	0x3e08f1a5	0.1337343
209	0xbe4f4039	-0.20239343
210	0xbc5ec66b	-0.013597111
211	0x3e882d58	0.26597095
212	0x3d4b551e	0.04964172
213	0x3df3484f	0.11879026
214	0xbe42bf6b	-0.19018333
215	0x3e93045b	0.2871426
216	0x3e885fd0	0.266356
217	0xbe223ff0	-0.15844703
218	0xbe502dc1	-0.20329954
219	0xbdd80542	-0.10547878
220	0x3e1878ba	0.14889804
221	0x3d6603b3	0.05615587
222	0x3d21fefa	0.039549805
223	0xbdc0dd02	-0.09417154
224	0xbe842509	-0.25809506
225	0x3ddd5a63	0.108082555
226	0x3e5fcff9	0.21856679
227	0x3e29a050	0.1656506
228	0x3e28c6b8	0.16482055
229	0x3e014550	0.12624097
230	0x3e8ddd69	0.27707985
231	0x3e86f941	0.2636204
232	0x3d68cb50	0.05683452
233	0x3da49cf4	0.08037749
234	0x3d69b65e	0.057058685
235	0xbdb95161	-0.09048725
236	0x3e8336ea	0.25627834
237	0x3e8fc2be	0.28078264
238	0xbb92cd54	-0.0044800434
239	0x3e4935a0	0.19649363
240	0x3e885aed	0.2663187
241	0x3e8f9772	0.2804523
242	0x3e92f522	0.28702646
243	0x3dbd69c8	0.09248692
244	0xbdfd7df5	-0.1237754
245	0xbe1d4120	-0.15356874
246	0x3e4e6bf3	0.20158367
247	0xbe77ff15	-0.242184
248	0x3dd7dd88	0.105403006
249	0xbd04eb74	-0.032451108
250	0x3e5708f6	0.20999512
251	0xbd348320	-0.044070363
252	0x3d844564	0.06458548
253	0x3e8775dc	0.26457107
254	0xbe61870f	-0.22024177
255	0xbdeeca0b	-0.116596304

bias f4 [20]
0	0x3e6cf6c6	0.23141012
1	0x3e5cf184	0.21576506
2	0x3e605d9d	0.2191071
3	0x3e56eaf4	0.20988065
4	0xbc70601d	-0.014671353
5	0x3e6f4c26	0.23368892
6	0x3e6c58d3	0.23080759
7	0x3e5f31c8	0.21796334
8	0x3e62f94d	0.22165413
9	0xbc8721fb	-0.016495695
10	0x3e4c65ef	0.1996076
11	0x3e58251a	0.21107903
12	0x3e57e7cb	0.21084516
13	0x3e6796c6	0.22616109
14	0x3e4e9e86	0.2017766
15	0x3e564f78	0.20928752
16	0x3e684678	0.22683132
17	0x3e6b4b88	0.22978032
18	0x3e6575a6	0.2240816
19	0x3e5c0f95	0.21490319

weight f4 [793, 20]
0	0xc001ab0b	-2.0260646
1	0xbfc35b58	-1.5262251
2	0xbf8474af	-1.0348109
3	0xbf6ac57b	-0.9170758
4	0x3c915e9e	0.017745312
5	0xbfad137a	-1.3521569
6	0xbf9fa93c	-1.2473521
7	0xbfc581f5	-1.5430285
8	0xbf438d7e	-0.76387775
9	0xbe3909fc	-0.18070215
10	0xbfa1cb17	-1.2640103
11	0xbf80aace	-1.0052125
12	0xbfbd641c	-1.4796176
13	0xc010fe6d	-2.265529
14	0xbf4dc258	-0.8037467
15	0xbfed4b13	-1.8538536
16	0xbfc8a96c	-1.5676703
17	0xbfb7335a	-1.4312546
18	0xbfc76ec6	-1.558068
19	0xbfb44fde	-1.4086874
20	0xbf53a425	-0.8267234
21	0x3dddff7c	0.108397454
22	0xbf2cf72e	-0.67564666
23	0xc03c5efd	-2.9432976
24	0x3cf12523	0.029436653
25	0xc0419343	-3.0246131
26	0xbf79113a	-0.9729191
27	0xc017ab2a	-2.369822
28	0xbdf9f093	-0.12204089
29	0xbe3df126	-0.18549022
30	0xc0102c0a	-2.252688
31	0xbf27a47a	-0.65485346
32	0xbff81a54	-1.9383035
33	0xc02326ed	-2.5492508
34	0x3e827f0c	0.25487554
35	0x3e05b7bf	0.13058375
36	0xbecfe4e8	-0.4060433
37	0xbfc8d1f6	-1.5689075
38	0xbf995ba4	-1.1981091
39	0xbea9e6a8	-0.3318379
40	0xbfb2ff8c	-1.3984237
41	0xc00dc7d3	-2.2153213
42	0xbfb81b55	-1.4383341
43	0xbf62e933	-0.88637084
44	0xbd46daa1	-0.048548345
45	0xbec007d2	-0.37505966
46	0xbfb902a6	-1.4453933
47	0xbfa85077	-1.3149556
48	0xbf115847	-0.56775326
49	0x3e4eb400	0.20185852
50	0xbe97bc68	-0.2963593
51	0xbeec0e19	-0.46104506
52	0xbe270bc4	-0.16313082
53	0xc005faec	-2.09344
54	0xbf95d134	-1.1704469
55	0xbf9f10b2	-1.242697
56	0xbebdf5f4	-0.3710171
57	0xbe450082	-0.19238475
58	0xbf94e51b	-1.1632417
59	0xbff06a61	-1.8782464
60	0xbfd43100	-1.6577454
61	0xc00102a7	-2.015787
62	0xbf82ebcc	-1.022821
63	0xc0b5e2b4	-5.6839237
64	0x3de20574	0.11036196
65	0xbfcb3c8f	-1.5877856
66	0xbf5b48e0	-0.85658073
67	0xbff2bcb4	-1.8963838
68	0xbfdffc33	-1.749884
69	0x3e431440	0.19050694
70	0xbf849be9	-1.036008
71	0xbfbdc889	-1.4826823
72	0xbf4cccea	-0.80000174
73	0xbfa8e1dd	-1.3193928
74	0xbf8bf5f7	-1.0934438
75	0xbf628b85	-0.8849414
76	0xbf8e9b8d	-1.114122
77	0xc092e6b9	-4.5906644
78	0xc011c5b8	-2.2776928
79	0xbf686e7a	-0.90793574
80	0xbf0619b4	-0.5238297
81	0xbf96c49b	-1.1778749
82	0xbfc09acb	-1.5047239
83	0xc003c66c	-2.0589857
84	0x3d118214	0.035524443
85	0xc018c599	-2.3870604
86	0xbf568377	-0.8379435
87	0xbf6ea7df	-0.932249
88	0xbe8ca42c	-0.27469003
89	0x3c519942	0.012792887
90	0xbf1d785f	-0.61511797
91	0xbfcb16cb	-1.5866331
92	0xbe943b89	-0.28951672
93	0xbfa9cced	-1.3265663
94	0xbf4ffa59	-0.81241375
95	0xbfb29e91	-1.3954641
96	0xbfd8d8a7	-1.6941117
97	0xbff929e3	-1.9465908
98	0xbe7d8bf6	-0.24760422
99	0xc00c5895	-2.1929066
100	0xbfb98a68	-1.4495363
101	0xbf305bc5	-0.6889003
102	0xbf127971	-0.57216555
103	0xbfcb30e6	-1.5874298
104	0xbc3d5ab0	-0.011557266
105	0xbfaa81e8	-1.3320894
106	0xbf3a493f	-0.72768015
107	0xc01a4a9d	-2.410804
108	0xbf0ba0c7	-0.545422
109	0xbe24be53	-0.16088228
110	0xbfa6cb23	-1.3030742
111	0xbfa30b99	-1.2737914
112	0xbfaa8e8a	-1.332475
113	0xbf24b03e	-0.64331424
114	0xbf2311a5	-0.636988
115	0xbfeff6c6	-1.8747184
116	0xc0125c74	-2.286893
117	0xbf64c40d	-0.8936165
118	0xbf6255a7	-0.88411945
119	0xc0058de0	-2.0867844
120	0xbe5c17fc	-0.21493524
121	0xbf9cdda6	-1.2255142
122	0xbebd6b00	-0.36995697
123	0xbd978606	-0.0739861
124	0x3ce1d9ad	0.027569616
125	0xc00b8bf6	-2.1804175
126	0xbf7a3b2c	-0.9774654
127	0xbf847c01	-1.0350343
128	0xbef996c2	-0.48747832
129	0xbe130393	-0.14356832
130	0xc00744ef	-2.1135824
131	0xc018898d	-2.3833954
132	0xbe089ebd	-0.13341804
133	0xbf981722	-1.188206
134	0xbfcc9fc4	-1.5986257
135	0xc01bf277	-2.4366739
136	0xc038dbc1	-2.8884127
137	0xbf24dcbc	-0.64399314
138	0xbf095459	-0.5364433
139	0xbf53efc5	-0.82787734
140	0xc068cbfa	-3.6374497
141	0x3ee5c3de	0.44875997
142	0xbe773184	-0.24139982
143	0x3e0dd04e	0.13848993
144	0xbbcbaace	-0.00621543
145	0x3e82f2b6	0.255758
146	0xc08aeb37	-4.3412127
147	0x3f1a3df0	0.6025076
148	0x3f4da1ff	0.8032531
149	0xbe0f8d10	-0.14018655
150	0x3efe795c	0.49701965
151	0xbf6fe311	-0.9370585
152	0x3eb3cf5d	0.35119143
153	0x3f1b56a5	0.60679084
154	0xbff4f615	-1.9137598
155	0xc003232c	-2.0490217
156	0xc08281c2	-4.0783396
157	0x3f25b949	0.6473585
158	0xc0752152	-3.8301587
159	0xc011e536	-2.279615
160	0xbee023a0	-0.4377718
161	0xbfbce727	-1.4758042
162	0xbf4987b4	-0.7872269
163	0xbe573d8a	-0.21019569
164	0xbd396808	-0.045265228
165	0xc0010776	-2.0160804
166	0xc060cc8b	-3.5124843
167	0xbf012f3d	-0.50462705
168	0xbf37d611	-0.71811014
169	0x3e08eea3	0.13372283
170	0xbf040bb2	-0.51580346
171	0xbf8be4fe	-1.0929258
172	0xbfa1694b	-1.2610258
173	0xbf054d34	-0.5207093
174	0xbed42713	-0.4143606
175	0xbfd7000c	-1.6796889
176	0xc009b585	-2.151704
177	0xc0093613	-2.1439254
178	0xbf8f2344	-1.1182637
179	0xbf939475	-1.152968
180	0xbd5058ff	-0.050866123
181	0x3d2ce3b2	0.042209335
182	0x3dbda25a	0.09259482
183	0xbfe364a0	-1.7765083
184	0x3debb5da	0.11509295
185	0xc04cba92	-3.1988873
186	0x3dfeac38	0.12435192
187	0xc00784a8	-2.1174717
188	0xbfb998d9	-1.449977
189	0xbdda4a65	-0.10658721
190	0x3ea10013	0.3144537
191	0x3e917724	0.2841121
192	0xc00fb461	-2.2453845
193	0x3eafc676	0.343311
194	0xbec110f2	-0.3770824
195	0xbda140f1	-0.07873715
196	0xc05e5c16	-3.4743705
197	0xc0419ae3	-3.0250785
198	0xbe5a95e4	-0.21346241
199	0xbfd08bd7	-1.6292676
200	0xbff49641	-1.9108354
201	0xc02fc8a9	-2.7466223
202	0xbf4e6b45	-0.8063243
203	0xbf52e7bf	-0.82384866
204	0x3d1c1afa	0.038111664
205	0xbf94df7c	-1.1630702
206	0xbff7d548	-1.9361963
207	0xbfaa2d52	-1.3295081
208	0xbfe19e25	-1.7626387
209	0x3e27c984	0.16385466
210	0xbfaf3691	-1.3688527
211	0xbf679565	-0.9046233
212	0xbf8cf42a	-1.1012013
213	0xc004fa9c	-2.077796
214	0xbf926d2a	-1.1439564
215	0xc006a0dc	-2.103568
216	0xbf62365f	-0.88364214
217	0xbf92f6a3	-1.1481518
218	0xbf83a0c9	-1.0283443
219	0xbfd16e11	-1.6361715
220	0xbfbf892c	-1.4963737
221	0xbfb303f4	-1.3985581
222	0xbfa4c7ce	-1.2873476
223	0xbf9a4da2	-1.2054942
224	0x3dac4a08	0.08412558
225	0xbf7134cf	-0.94221205
226	0xbfac11fe	-1.3442991
227	0xbfb17812	-1.3864768
228	0xc02230cd	-2.5342286
229	0x3e43994d	0.19101448
230	0xbf8786c9	-1.0588008
231	0xbf9d7605	-1.2301642
232	0xbfceef4d	-1.6166779
233	0xbf9958cb	-1.1980222
234	0xbfb3104c	-1.3989348
235	0xbfddda6a	-1.733228
236	0xbfbe9f48	-1.4892359
237	0xbf9eae45	-1.2396933
238	0xbfe0a676	-1.75508
239	0xbf952f8e	-1.1655138
240	0xbfa548d6	-1.2912853
241	0xc0966cb9	-4.700772
242	0xbf8cc0af	-1.0996302
243	0xbf88ee08	-1.0697641
244	0xbdeb67ed	-0.11494432
245	0xc0c3dc1e	-6.12062
246	0xbf9fac8a	-1.247453
247	0xbf865d80	-1.0497284
248	0xbf937706	-1.1520698
249	0x3e52f1d8	0.20600069
250	0xc02efa08	-2.7340107
251	0xc082d1b8	-4.0881004
252	0xbfc473fb	-1.5347894
253	0xc0ce5c42	-6.448762
254	0xbf91ebd4	-1.1400094
255	0xbf9deb63	-1.2337459

bias f4 [793]
0	0xbf632cfe	-0.8874053
1	0xbefdcb54	-0.4956919
2	0xbf2e961a	-0.68197787
3	0xbf60c2f5	-0.8779748
4	0xbef07597	-0.46964714
5	0xbf66e516	-0.9019331
6	0xbed879a5	-0.42280307
7	0xbef77090	-0.48328066
8	0xbf114d5e	-0.5675868
9	0xbed92365	-0.42409816
10	0xbf9188c0	-1.1369858
11	0xbf63fe6d	-0.890601
12	0xbf9134bb	-1.1344217
13	0xbf764b6a	-0.9620882
14	0xbf7be47f	-0.9839553
15	0xbf1e3c20	-0.61810493
16	0xbf2ab098	-0.6667571
17	0xbf80a6b4	-1.0050874
18	0xbf87afae	-1.0600488
19	0xbf86edbb	-1.05413
20	0xbf9231e4	-1.1421475
21	0xbec99750	-0.39373255
22	0xbf77d19e	-0.96804225
23	0xbf775f66	-0.9662994
24	0xbf7bfa21	-0.9842854
25	0xbfb6e767	-1.4289368
26	0xbf96b3bd	-1.1773602
27	0xbf6319a0	-0.88710976
28	0xbf821137	-1.0161504
29	0xbf72b9a2	-0.94814503
30	0xbf5e6c3f	-0.8688392
31	0xbf47159a	-0.77767336
32	0xbfc6fba0	-1.554554
33	0xbf073912	-0.5282146
34	0xbf84acda	-1.036525
35	0xbf6d3aa1	-0.92667586
36	0xbf81d375	-1.0142657
37	0xbf9a112a	-1.2036488
38	0xbf314d99	-0.6925903
39	0xbf90a101	-1.1299134
40	0xbf689722	-0.9085561
41	0xbeff2c8e	-0.4983868
42	0xbf119034	-0.5686066
43	0xbf8fc931	-1.1233274
44	0xbf90fd5f	-1.1327323
45	0xbf8da413	-1.1065696
46	0xbfbade61	-1.4599115
47	0xbf7a75cb	-0.9783599
48	0xbf96dece	-1.1786745
49	0xbf9ad317	-1.209567
50	0xbfb47495	-1.4098078
51	0xbf38492f	-0.7198667
52	0xbf7b385d	-0.9813288
53	0xbf8a1449	-1.078744
54	0xbf9d41d7	-1.2285718
55	0xbf75be05	-0.9599307
56	0xbf5d29f0	-0.86392117
57	0xbf592534	-0.8482239
58	0xbf85de47	-1.0458459
59	0xbf14c44d	-0.5811203
60	0xbf93a349	-1.1534206
61	0xbf1e1f69	-0.6176668
62	0xbf396ad2	-0.7242862
63	0xbf83367a	-1.0251
64	0xbf8de9be	-1.1086957
65	0xbfa0bd81	-1.2557832
66	0xbf05e82a	-0.5230738
67	0xbf343470	-0.70392513
68	0xbf77c66f	-0.9678716
69	0xbf8196ca	-1.0124142
70	0xbf76664a	-0.9624983
71	0xbf5e0cd7	-0.8673834
72	0xbf46426c	-0.774451
73	0xbf8ecdfc	-1.1156611
74	0xbfa7f01b	-1.3120149
75	0xbf8f2b92	-1.1185172
76	0xbf12e9ed	-0.5738819
77	0xbde44ed7	-0.1114785
78	0xbf4da47b	-0.803291
79	0xbf8ff2a7	-1.1245927
80	0xbf5ca073	-0.86182326
81	0xbf66fa5f	-0.90225786
82	0xbf93e293	-1.155352
83	0xbf641dba	-0.8910786
84	0xbfac9ac0	-1.3484726
85	0xbf83d063	-1.029797
86	0xbf7ca610	-0.9869089
87	0xbf959cd2	-1.1688483
88	0xbf96b624	-1.1774335
89	0xbf3feb8c	-0.7496879
90	0xbf8d069b	-1.1017641
91	0xbf538efd	-0.8264006
92	0xbf90eb7d	-1.1321865
93	0xbf8962ee	-1.0733316
94	0xbf9b70ce	-1.21438
95	0xbf6bcdb9	-0.9211078
96	0xbf418b58	-0.75603247
97	0xbf9ae5f8	-1.2101431
98	0xbf9418f6	-1.1570117
99	0xbf8e2824	-1.1106
100	0xbf3310f8	-0.6994777
101	0xbf9ed333	-1.2408203
102	0xbf820d75	-1.0160357
103	0xbfba5aa7	-1.4558915
104	0xbf88428c	-1.0645308
105	0xbf6b1a6f	-0.9183721
106	0xbf85808d	-1.0429856
107	0xbf783777	-0.9695963
108	0xbf7062b6	-0.9390062
109	0xbf81742f	-1.0113581
110	0xbf03c987	-0.5147938
111	0xbf97888d	-1.1838547
112	0xbfb37301	-1.4019471
113	0xbf60603b	-0.87646836
114	0xbf95a4fc	-1.1690974
115	0xbf9b5853	-1.213633
116	0xbf887703	-1.066132
117	0xbf6e9c97	-0.9320769
118	0xbf8bab5e	-1.0911672
119	0xbf2138e4	-0.62977433
120	0xbf21bbff	-0.63177484
121	0xbf84124b	-1.0318083
122	0xbf9265c6	-1.1437309
123	0xbf84e796	-1.0383174
124	0xbfb9c52a	-1.4513295
125	0xbfa9239d	-1.3213993
126	0xbf865a44	-1.0496297
127	0xbd3a3672	-0.04546208
128	0xbf894f77	-1.0727376
129	0xbfa19909	-1.2624828
130	0xbf1554dd	-0.58332616
131	0xbf7fd9f9	-0.99941975
132	0xbf30c34e	-0.6904801
133	0xbf64745a	-0.8924004
134	0xbf63488c	-0.8878257
135	0xbf663d68	-0.8993745
136	0xbf31ed2c	-0.6950252
137	0xbf9324c1	-1.1495591
138	0xbf01b906	-0.5067295
139	0xbe6e39cb	-0.23264234
140	0xbf3daab2	-0.74088585
141	0xbf6218f9	-0.88319355
142	0xbf45d39e	-0.7727603
143	0xbfb55064	-1.4165158
144	0xbf7d29d9	-0.9889198
145	0xbf8fee88	-1.1244669
146	0xbfaa56da	-1.3307755
147	0xbfb41aff	-1.4070739
148	0xbf42543b	-0.75909775
149	0xbf9147f5	-1.1350085
150	0xbf375c56	-0.7162527
151	0xbf74e988	-0.9566884
152	0xbfb6408e	-1.423845
153	0xbf7ebfcc	-0.9951141
154	0xbf721436	-0.9456209
155	0xbf8e17a1	-1.1100961
156	0xbf247ec7	-0.64255947
157	0xbf45b13f	-0.7722358
158	0xbf984d2e	-1.1898553
159	0xbfb99b7c	-1.4500575
160	0xbf9c8464	-1.2227902
161	0xbf8ef9b1	-1.116995
162	0xbf5e7da0	-0.8691044
163	0xbf6125ee	-0.879485
164	0xbf904569	-1.1271182
165	0xbf7a20d6	-0.97706354
166	0xbf7588b9	-0.9591175
167	0xbf95ef5b	-1.171367
168	0xbf9a24cf	-1.2042483
169	0xbf816e4f	-1.0111789
170	0xbf12cb9d	-0.5734194
171	0xbf92078c	-1.1408553
172	0xbf4b056d	-0.79305154
173	0xbf53458b	-0.8252799
174	0xbfc998d3	-1.5749763
175	0xbf958f9c	-1.1684451
176	0xbf8a7cae	-1.0819299
177	0xbf6375c0	-0.8885155
178	0xbf90f056	-1.1323345
179	0xbf9ba042	-1.2158282
180	0xbf864b3a	-1.0491707
181	0xbf7bf087	-0.9841389
182	0xbf3b40ca	-0.73145735
183	0xbf505daa	-0.8139292
184	0xbf88a22c	-1.0674491
185	0xbf1ebea1	-0.62009627
186	0xbf4d73ab	-0.8025462
187	0xbf9c4e61	-1.2211419
188	0xbf8381ec	-1.0274024
189	0xbf80655e	-1.0030935
190	0xbf8eb3b3	-1.114859
191	0xbec9c239	-0.39405993
192	0xbfb40627	-1.4064378
193	0xbf7babf1	-0.98309237
194	0xbf854f3e	-1.0414808
195	0xbf2246ae	-0.633891
196	0xbf6c3c07	-0.92279094
197	0xbf299808	-0.66247606
198	0xbf815261	-1.0103265
199	0xbf0e6987	-0.5562977
200	0xbf8e452b	-1.1114858
201	0xbfa13670	-1.2594738
202	0xbf8ef82e	-1.1169488
203	0xbf768bb8	-0.96306944
204	0xbf744f2e	-0.9543332
205	0xbfb97fcf	-1.4492129
206	0xbfb7e14a	-1.4365628
207	0xbed9ca62	-0.42537218
208	0xbf0c41ed	-0.54788095
209	0xbf64a4ee	-0.8931416
210	0xbf57470a	-0.8409277
211	0xbf84eddc	-1.0385089
212	0xbf59dc07	-0.8510136
213	0xbf80a423	-1.005009
214	0xbf90c646	-1.1310508
215	0xbf3ed729	-0.7454706
216	0xbf90990d	-1.1296707
217	0xbf2588e3	-0.64662
218	0xbfafb50d	-1.3727127
219	0xbf8106cb	-1.0080198
220	0xbf8ecaf2	-1.1155684
221	0xbfb1037b	-1.3829187
222	0xbf7a6fe4	-0.9782698
223	0xbf56661f	-0.83749574
224	0xbf76301c	-0.9616716
225	0xbf9c5bac	-1.2215476
226	0xbf5ffee6	-0.8749832
227	0xbf847b28	-1.0350084
228	0xbf963be0	-1.1737022
229	0xbf8010d1	-1.0005132
230	0xbfa958d2	-1.3230231
231	0xbfaa6c53	-1.3314308
232	0xbf8ff2cc	-1.1245971
233	0xbf5d25dd	-0.863859
234	0xbf679a38	-0.90469694
235	0xbf883844	-1.0642171
236	0xbfa0beb6	-1.25582
237	0xbf9c8321	-1.2227517
238	0xbf8708a3	-1.0549511
239	0xbf87c516	-1.0607021
240	0xbf2a8d7c	-0.6662214
241	0xbf59af79	-0.85033375
242	0xbf90efec	-1.1323218
243	0xbe84cdd1	-0.25938275
244	0xbf6c9159	-0.9240928
245	0xbf40b8f7	-0.75282234
246	0xbf939b42	-1.1531756
247	0xbf6d096d	-0.9259251
248	0xbf87d697	-1.0612363
249	0xbfa26d00	-1.2689514
250	0xbf9add28	-1.2098742
251	0xbf548860	-0.8302059
252	0xbf89aa7c	-1.0755153
253	0xbf5f5790	-0.87242985
254	0xbfb7f677	-1.437209
255	0xbf94e1ae	-1.1631372
